lab3_AM.pt (torch, 682043 bytes, 14 tensors)

conv1.weight f4 [32, 1, 5, 5]
000000 82 91 06 be 14 8f 8f bd f8 66 c9 3c df 71 1c 3d
       -0.13141444 -0.07009712 0.024585232 0.038194533
000010 0a 5f 86 3e 27 87 2e be 11 b3 c8 be 94 dc 07 bf
       0.26244384 -0.17043744 -0.39199117 -0.5307095
000020 d0 b6 e2 be a8 4c f7 bd 99 f0 84 3e 99 21 8c be
       -0.442801 -0.12075168 0.2596481 -0.27369383
000030 cd 3e 2b be 39 83 99 be 5c 3f 6d be 03 15 0b 3f
       -0.16723175 -0.29982927 -0.23168701 0.54328936
000040 7c 77 15 3f 94 b8 8d 3e 48 fa 86 3e 3c 0f 46 3e
       0.58385444 0.27679884 0.26362824 0.19341749
000050 1c b9 93 be 44 ff ae 3e 6c 5e b2 3e 8b d2 ed 3d
       -0.28852165 0.34179127 0.34837663 0.116124235
000060 d8 a5 39 3c 68 ad 08 3e 7c 34 ac 3d 5e b3 62 be
       0.011331044 0.13347399 0.08408448 -0.22138736
000070 61 49 a0 be 84 db 7b be ca e5 45 3c 50 c9 b1 3d
       -0.31305984 -0.24595457 0.012078712 0.086809754
000080 e0 bc 9f 3d 32 d2 8e be bd fe 0f bd a1 5f e0 bd
       0.07799697 -0.2789474 -0.035155047 -0.1095574
000090 9d 91 00 be 84 ed 97 3e 76 ae 89 3d d6 ae d4 3d
       -0.12555547 0.29673398 0.06722729 0.1038491
0000a0 1f 15 52 3e cb 60 5c 3e f1 3a 2a 3e 5a d3 0a 3d
       0.2051587 0.21521299 0.16624047 0.033892967
0000b0 e1 5f 53 ba b8 e9 3a 3e b8 27 ba 3c 8e 62 e2 3d
       -0.00080632983 0.18253219 0.022724018 0.11053954
0000c0 b0 49 31 be e4 dc 65 3e 74 33 33 3e ee e9 81 be
       -0.17313266 0.22447544 0.17500097 -0.25373787
0000d0 7d ca 50 3e 83 11 f8 3d 25 6b 56 bc 1c 90 4c 3c
       0.20389743 0.12112715 -0.013087069 0.01248553
0000e0 47 c3 0f be e6 f3 a5 3e 9c 03 0b bc c5 83 1c be
       -0.14039336 0.32412642 -0.008484747 -0.15284641
0000f0 f2 fc 36 3e 60 c2 1a be 25 e9 e2 3e 89 46 88 3e
       0.17869928 -0.1511321 0.443185 0.26616314
000100 08 d6 45 3e 1d e5 1f bd dc a1 8b be 2b c2 10 be
       0.19319928 -0.03903686 -0.27271926 -0.14136569
000110 26 0f 3e 3e 81 e2 e4 3d 3c 17 b3 bd b3 d1 86 be
       0.18560466 0.11176015 -0.08744666 -0.26331863
000120 82 b3 01 be 22 68 52 be 78 0d 18 3e 34 01 23 3e
       -0.12666133 -0.20547536 0.14848888 0.15918428
000130 12 42 b0 bd 2c 87 80 bc 6d 54 bc 3d 36 b4 12 3e
       -0.08606352 -0.015689455 0.091957904 0.14326558
000140 bc a0 7e bd 8c 01 cf 3d 8f c0 60 3d 08 66 97 bd
       -0.062165007 0.10107717 0.05487114 -0.07392508
000150 fa 1d 07 bd 00 5e 42 3d 66 f0 0e bd 35 bb a0 3d
       -0.032987572 0.047452927 -0.03489723 0.07848207
000160 ca ed fa 3d a9 4d 88 3e 5e 09 c6 3c b0 04 19 be
       0.12252386 0.2662175 0.024174388 -0.14943194
000170 ca b7 e8 bd ff 16 2d bd 32 6b a7 bd 0f 9b ad 3d
       -0.1136318 -0.04225826 -0.08174743 0.08476841
000180 e6 02 d0 3d 93 ac 01 bd 6c b9 c1 3c 2b 3d b3 bd
       0.10156803 -0.03165872 0.023647986 -0.08751901
000190 6a 4f a6 3c 32 fc 48 bd 6a 84 ac 3d 84 df 8a 3d
       0.02030154 -0.049068637 0.084236935 0.067809135
0001a0 15 99 be bd 1e 96 45 3e ab 3e bd 3d ba 1d 08 be
       -0.09306542 0.19295546 0.092404686 -0.1329259
0001b0 e5 42 4b 3e 97 49 01 3e 68 bf e8 3b 52 54 b3 3d
       0.19849737 0.12625729 0.0071028955 0.08756317
0001c0 2e 5b 2e 3e b5 25 4a 3d 5a 72 bc 3d 57 94 95 bd
       0.1702697 0.049352366 0.09201498 -0.07303684
0001d0 3b 9f 33 bd b5 cc 93 bd c3 fe fe 3d bc e7 a0 3d
       -0.043853026 -0.07216779 0.12450936 0.078567
0001e0 bd f4 09 be e2 7b 6c bd 9f 9f 3a be 2f 43 c1 3d
       -0.13472266 -0.05773533 -0.18224953 0.094366424
0001f0 07 8b f7 bd 2c 1c f1 be cf c4 99 be be fa 07 3f
       -0.12087064 -0.47091806 -0.30032966 0.5311698
000200 e9 25 34 3e 75 b9 b0 3d ef 99 a5 be 5c 1d 8d 3e
       0.17592587 0.08629123 -0.32344005 0.27561462
000210 73 23 21 3f 87 46 16 3e 2a 76 08 be b5 07 c2 3e
       0.62944716 0.14675342 -0.13326326 0.37896505
000220 19 a2 85 3e 6d 53 36 3f 7b 20 9f be d1 33 e1 be
       0.26100233 0.7122105 -0.31079468 -0.43984845
000230 4a aa 0d 3f 71 95 f8 3d 97 56 d3 bc 28 88 0d bf
       0.55337965 0.12137879 -0.025798125 -0.5528588
000240 b7 f7 13 bf c4 ec c4 3e 25 26 88 3d 08 b4 3f be
       -0.5779986 0.38461888 0.066479005 -0.1872102
000250 92 cf 16 bf ff 98 ce be 5d e3 d0 be 3d ef 2b be
       -0.5891048 -0.40351102 -0.40798464 -0.16790481
000260 db e7 ea 3d d8 fd 03 be ec af d2 3d d6 3d 0a bf
       0.11470004 -0.12889802 0.10287461 -0.54000604
000270 7e 7b dd be 0d 9f 42 3e 8c 15 44 3e 0a 95 cf 3d
       -0.4325828 0.19005986 0.19148844 0.10135849
000280 56 a1 e9 be d6 14 9f bd 30 af 62 3e 6a 38 c3 3e
       -0.45630902 -0.07767646 0.22137141 0.38128978
000290 7b d3 92 3e 15 f7 75 be f0 ad ed 3b 5f 80 21 3f
       0.28676972 -0.24020036 0.007253401 0.63086504
0002a0 b5 64 9f 3e 65 12 bf bc 9c 2a ec 3d 4e 0c c9 3d
       0.3113152 -0.0233242 0.115315646 0.098168
0002b0 1f db b5 3e 7b 6e 2c bd fd 7c 47 3d 73 3b 2c bd
       0.3551874 -0.04209755 0.048703182 -0.042048883
0002c0 45 d7 7e 3e a3 46 5d 3e 7a 26 bd 3d ed 27 48 3d
       0.24886806 0.21608977 0.092358544 0.0488662
0002d0 c8 1d 73 3e 78 9a 7c 3e 76 3f 37 3e 7d ff 8c bd
       0.2374183 0.246683 0.17895302 -0.06884668
0002e0 86 0b 31 3e 92 c9 73 3d fe 79 5f be d9 97 fb 3d
       0.17289552 0.059518404 -0.2182388 0.12284822
0002f0 5e fc f0 3e b6 98 1f 3e 16 36 93 be 04 bd bd be
       0.4706754 0.15585598 -0.28752202 -0.3705827
000300 7a cd 5b be 62 0c 8d 3e 24 75 d5 3e c7 53 a7 be
       -0.21465102 0.2754851 0.41690934 -0.32681105
000310 31 86 12 be dc f5 87 be db fb d5 bd c4 82 ab 3e
       -0.14309002 -0.26554763 -0.10448428 0.33498204
000320 51 3a 37 3e e2 9a ff 3c f1 56 22 be cc e3 0e bd
       0.1789334 0.031201784 -0.15853478 -0.034885213
000330 d9 30 56 3d 53 cc 05 3e df c9 d7 3d c1 c4 ed bc
       0.05229268 0.13066225 0.10536551 -0.029024484
000340 57 1d df bd c5 f3 21 3e f7 1f 25 be 11 02 23 bd
       -0.10894268 0.15815647 -0.16125475 -0.039796893
000350 99 3a e4 bd 25 be 18 be da 07 11 3e 90 d6 75 3d
       -0.11143989 -0.14916284 0.14163151 0.060019076
000360 99 6c 20 3e c9 ce 09 3e d9 40 21 3e 41 aa 0b 3e
       0.15666427 0.13457789 0.15747394 0.13639165
000370 e6 df 18 bd da c1 e1 bd 88 33 b1 3d dd e4 0e 3e
       -0.0373229 -0.110233024 0.08652407 0.13954492
000380 1f e4 52 3d 83 41 f5 bd 54 87 1f bd 0f 08 ff bd
       0.051487084 -0.11975386 -0.03894742 -0.12452709
000390 c1 f6 87 3a 50 4b d2 3c b9 ec 29 3e a3 77 ec 3c
       0.0010373221 0.025670677 0.16594209 0.028865641
0003a0 59 3c ea 3d ef d8 1b 3d 96 38 ab 3e 02 dd a3 3e
       0.11437292 0.03804868 0.3344161 0.32004553
0003b0 b2 f5 ae 3e d2 2b 68 3d 1f 43 4f 3e 92 7a 7e 3e
       0.34171826 0.056682415 0.20240448 0.24851444
0003c0 e5 ca 84 be 0a 79 07 bf 6d 62 bf be 95 8d ec be
       -0.25936046 -0.52919066 -0.3737978 -0.4620177
0003d0 71 64 d9 be f7 d8 22 be 2e cf 29 3d 26 0d 58 bc
       -0.42459443 -0.15903078 0.041457348 -0.013186729
0003e0 8a 5a 70 3e 57 c0 9a 3e af d5 1d be 6f 21 34 3e
       0.23472038 0.3022487 -0.15413545 0.17590879
0003f0 00 68 e2 3d fd e1 25 3d a7 0d 4c 3e 6b 70 2e 3b
       0.11054993 0.040498722 0.19927083 0.00266173

conv1.bias f4 [32]
000000 df d6 a2 bd 9d 65 43 3e 8d 10 31 be 02 11 89 bd
       -0.0795114 0.19081731 -0.1729147 -0.06692697
000010 31 3d d8 bc 30 1c a2 bd 95 56 dc 3d 6a 09 dc bd
       -0.026396366 -0.079155326 0.10758702 -0.10743983
000020 f3 95 4a 3e da 7c 32 be 96 04 21 bd a2 43 53 3c
       0.19783764 -0.1743044 -0.039311014 0.012894543
000030 86 7e a1 3d f4 6f 06 3b d1 06 0c bc 35 51 ad bc
       0.078854606 0.0020513507 -0.008546547 -0.021156887
000040 c2 05 7b 3d 6a bc 80 bd 4b 87 50 3e c9 40 7b be
       0.061284788 -0.06285937 0.2036411 -0.24536432
000050 da ba 37 be c1 a6 16 be 0a 6f 0a be 74 e5 91 3d
       -0.17942372 -0.14712049 -0.1351892 0.07123843
000060 22 77 8a bc 09 25 23 bd d5 ca 00 3e 2b 0b 8c 3d
       -0.01690251 -0.03983024 0.12577374 0.068380676
000070 36 05 d2 bd 96 e5 42 be 96 a7 4d 3a 14 89 45 bd
       -0.102549 -0.19032893 0.00078451016 -0.04822643

conv2.weight f4 [64, 32, 5, 5]
000000 23 f7 a9 bd 55 c9 53 bd 2e 24 8d bd 8e ad 2c bc
       -0.08299091 -0.051705677 -0.06891666 -0.010539426
000010 2b 14 70 3c 88 70 0d 3d d2 2e 8e bd 8f d6 3b be
       0.014653246 0.034531146 -0.06942524 -0.18343566
000020 14 2e 61 bd 8b 3f 5f bd dd c8 4b be 75 99 14 be
       -0.054975584 -0.05450396 -0.19900842 -0.14511664
000030 63 9f cc 3d 86 65 93 3c 99 62 cb 3b 40 48 4a bd
       0.09991338 0.017992746 0.006206822 -0.04938531
000040 6c 41 7e bc 6f 70 05 3e 76 16 21 3e a5 42 51 3e
       -0.0155185275 0.13031171 0.15731224 0.20435579
000050 e2 a4 53 bd ca 75 94 bd 3d fe dd bd 47 ae b8 bc
       -0.051670916 -0.07249029 -0.10839508 -0.02254404
000060 8c a8 4b bd f2 31 45 3c ae a3 26 bd 82 fc ea bc
       -0.049721286 0.012035834 -0.04068344 -0.028684858
000070 f2 74 fb 3c 34 74 2f 3c 54 43 46 bd ff fb 0f bd
       0.030695412 0.010708857 -0.048404053 -0.03515243
000080 aa bb e7 bb 58 36 09 bd f8 4d e9 3c 81 15 90 3b
       -0.007071932 -0.033499092 0.028479561 0.0043970947
000090 22 f6 da bc d0 bc 0e bd ca 21 bf bc 97 2b 8b 3a
       -0.026728693 -0.034848034 -0.023331542 0.0010617849
0000a0 ca 68 70 bc 28 87 04 3d 8e 3d 20 3d 80 f9 84 3b
       -0.014673421 0.032355458 0.039121203 0.004058063
0000b0 2c 65 00 bd d6 66 ae bc ec c5 4c 3c 8e 35 03 3d
       -0.031346485 -0.02128927 0.01249836 0.032033496
0000c0 a7 21 b8 3b 75 c4 0c 3d 34 50 2c bc d6 36 1d bd
       0.005619246 0.034367044 -0.010517169 -0.038382374
0000d0 58 f7 47 bd 1b 71 35 bd 36 9b 90 bd b6 f7 19 3d
       -0.04881987 -0.04429732 -0.07060854 0.03758975
0000e0 d0 90 18 3d ed 53 44 3d 1b d9 14 3d ee f9 be 3c
       0.03724748 0.0479316 0.03633986 0.023312535
0000f0 ea a8 17 3d e4 a4 26 3d 64 ce 7e bc ed ca 44 bc
       0.037026323 0.040684596 -0.015552137 -0.012011272
000100 bc 53 c4 bc 40 4d 46 3b 54 7e 1e bc a3 30 54 bc
       -0.023965709 0.0030258447 -0.009673674 -0.012951049
000110 df 5e 33 bb 47 dc a2 bc 66 64 5f 3b 5f 50 80 bc
       -0.002736978 -0.019880427 0.0034086942 -0.015663324
000120 0f 04 48 bd b0 a1 ed bc e7 1f 69 bc bc fc 3f bd
       -0.048831996 -0.029007763 -0.0142287975 -0.046871886
000130 c8 1c c5 3b d0 ba 94 bb af 6f 18 bc 20 93 ce 3c
       0.006015394 -0.0045388713 -0.009303971 0.025216639
000140 fb 5d be bc 8f 5b e9 bc ee f7 d8 3c 6f 68 23 3c
       -0.023238173 -0.028486041 0.02648541 0.009973629
000150 cf ce 0c 3d e3 74 95 bc fc ea d0 bc 13 6a 28 ba
       0.034376916 -0.018244212 -0.025502674 -0.00064244977
000160 15 2a cd 3c 6a f0 82 3c b5 2f 23 bc c0 24 5e bd
       0.02504448 0.015983779 -0.009960105 -0.054234266
000170 b7 c8 3d bc 40 73 15 bd e8 7f d1 bc 08 30 76 bc
       -0.011583499 -0.036486864 -0.025573686 -0.0150261
000180 b3 95 8e bc 94 12 01 3d b6 9d a2 3b 62 74 cf 3c
       -0.017405367 0.031511858 0.0049626483 0.02532405
000190 c3 92 39 bc d8 11 07 bd 2c f2 9d bb b5 8d 2a 3c
       -0.011326495 -0.032976 -0.004820129 0.010409762
0001a0 05 1e 8f bb 98 6c 0a bc 61 6d a9 bb 39 5e 49 ba
       -0.0043675923 -0.008448742 -0.0051705097 -0.0007681582
0001b0 74 07 3b 3d 39 88 22 3d cf 8b cd 3b c7 8b 13 bc
       0.045661405 0.039680693 0.00627277 -0.0090054935
0001c0 5a e1 29 bd 6f 7b 15 bd c1 d2 73 3c 1c 13 a7 bc
       -0.041474678 -0.03649467 0.014881791 -0.020394854
0001d0 e4 1a 59 3c 9a fb 09 bd 42 a5 ea 3a 46 81 1e 3c
       0.01325104 -0.03368721 0.0017902034 0.009674376
0001e0 56 32 50 3c 48 1b 1b bb 55 98 0b 3d 15 f2 22 3d
       0.0127073135 -0.0023667384 0.034080822 0.03978165
0001f0 68 10 cd bc 1b 23 3e 3c 4b 25 91 3c 72 ad 00 3e
       -0.025032237 0.0116050495 0.017717978 0.12566164
000200 10 71 15 bd 23 09 3f bd 02 7f 94 bc e6 b7 93 bc
       -0.036484778 -0.046639573 -0.018126968 -0.018032026
000210 12 8d 6c 3d 14 6d 91 bc 73 6e 7e 3c 41 65 47 bd
       0.057751723 -0.017752208 0.015529263 -0.048680548
000220 83 c2 06 3c 7a b1 6e 3d c6 b3 f9 bc 73 c0 46 bd
       0.008225086 0.058274724 -0.03048123 -0.048523378
000230 e1 8e 93 bd f4 ef 82 bd cb d0 11 be de a9 2a bd
       -0.07204986 -0.06393424 -0.14239804 -0.041665904
000240 22 91 9f bd dc 9e a3 3d ec 2d 6b 3d 25 98 0f 3e
       -0.07791354 0.079892844 0.05741684 0.14022882
000250 d8 ab a1 3d 30 ed e8 bb 29 10 e9 3c 3c eb ba 3c
       0.07894105 -0.007108353 0.028450089 0.022817247
000260 d6 4e 23 bc 8b e2 07 bd db ae f2 3b 59 54 0c 3d
       -0.009967526 -0.033175033 0.0074060983 0.034260128
000270 1b 64 ff bc 68 85 d0 bc 8f 9b 19 3c ef 9f 70 3d
       -0.031175664 -0.025454238 0.009375467 0.058746275
000280 db af 16 bd 41 71 7d bc 4a d8 f4 bc 6e cf bf 3c
       -0.036788803 -0.015468896 -0.02988829 0.02341434
000290 1f c7 df 3c c3 9b 5b bd 53 9a 5c bc 11 c0 91 3b
       0.027316628 -0.053615343 -0.013464528 0.004447945
0002a0 8a aa 53 bd 9f e9 90 3c 42 94 89 bc 24 e9 53 bd
       -0.05167631 0.017689524 -0.016794328 -0.051736012
0002b0 d4 78 03 bd b8 59 0f bd 79 68 3d 3b bd 0d cf 3b
       -0.032097653 -0.03499767 0.0028901382 0.0063187764
0002c0 04 13 03 bd 4a 21 ef bc eb 44 41 bc bf a2 92 bd
       -0.032000557 -0.029190678 -0.0117962165 -0.071599476
0002d0 8e 9d 95 bb d8 70 4b 3d d5 d5 dd 3b cc 3d 2e bc
       -0.004565901 0.049668163 0.0067698755 -0.010634851
0002e0 ce cc a0 3c 11 db b1 3c a4 0f 07 bd b7 fc 76 bc
       0.019628908 0.021710904 -0.0329739 -0.0150749
0002f0 39 5c c5 bd 40 db 30 bd ac 70 47 3c ae b6 06 bd
       -0.09636731 -0.043177843 0.012172859 -0.03288906
000300 f3 6f 35 bd e9 c7 18 3c 91 f0 9a 3b 8f 81 43 ba
       -0.044296216 0.009325006 0.004728385 -0.00074579654
000310 30 fc 6b bb b3 c8 21 bd 29 31 c9 bc 70 c2 83 bc
       -0.003600847 -0.039498042 -0.024559574 -0.016083926
000320 0d 71 82 3c 54 b2 04 3d aa c1 b4 bc a3 b0 92 3a
       0.015923047 0.03239663 -0.022065002 0.0011191558
000330 54 46 d4 bc 67 0d a7 3c ec d3 15 bc a0 83 32 bc
       -0.025912441 0.020392133 -0.009144764 -0.01089564
000340 1f b2 99 bc 34 fd b7 bb 91 34 85 3c de a8 54 bc
       -0.018761693 -0.005614901 0.016260417 -0.012979714
000350 4b 4a c2 bc d3 2e 20 bc 21 9e da 3c fa 0b 87 3c
       -0.023717066 -0.009776789 0.02668673 0.016485203
000360 e8 34 30 bc 00 f0 c0 3c cd c7 b1 3c 51 61 a4 bc
       -0.010754801 0.02355194 0.021701718 -0.020065935
000370 76 07 a1 3c 4a 9e 24 3b f9 8f c1 bb b0 b9 b8 bc
       0.019656878 0.0025118762 -0.0059070555 -0.02254948
000380 63 1e e5 3c 7c d2 82 bc de 14 9b bc bd 78 cf 3c
       0.027968591 -0.015969507 -0.018930849 0.025326127
000390 1b 15 63 3c 53 c5 8b bd 97 ef b2 bd 92 ed a0 bd
       0.013860012 -0.06824746 -0.087371044 -0.07857813
0003a0 ac 84 80 3c 77 d0 65 3d a3 98 9b 3d 52 69 b6 3d
       0.015688263 0.05610701 0.075974725 0.08906807
0003b0 88 bb e7 3d 43 34 a3 3d 99 9d 13 3d 2e eb 28 3c
       0.113150656 0.079689525 0.03603897 0.010309977
0003c0 8c 80 51 bd c9 8f 2b bd 98 13 61 bd 76 a8 45 bd
       -0.051147982 -0.04188517 -0.054950327 -0.04825636
0003d0 76 21 8e 3c 6f 49 14 bd 62 0f 57 bb 04 8a b6 3c
       0.01734994 -0.036202844 -0.0032815565 0.022282608
0003e0 be 8a 32 3d cf 00 66 bc 81 c9 0a bb 7d 95 6a bc
       0.043589346 -0.014038279 -0.0021177235 -0.014317867
0003f0 5f 61 c2 3b 85 6f 0e bd 1a 33 06 bd e9 c6 88 bc
       0.0059320177 -0.034774322 -0.032763578 -0.01669641

conv2.bias f4 [64]
000000 c9 c9 0f bd 28 15 86 bc 6b db 70 bc 9c 12 0a bd
       -0.035104547 -0.01636751 -0.014700751 -0.033709154
000010 fd e4 13 3d ca ee a3 bc 8c e4 97 bc f0 d8 04 3c
       0.036107052 -0.020011324 -0.018541597 0.008108363
000020 a8 22 99 ba 5d 29 a5 3c 61 7b a8 3a ef 86 ee bb
       -0.0011683302 0.020161325 0.0012854153 -0.007279269
000030 70 21 53 3d a5 fe eb bc cc 3b 7f 3d b1 60 0d 3d
       0.05154556 -0.028807947 0.062312886 0.03451604
000040 c7 6c 0a bd 16 e2 54 ba 1d f6 02 bd 05 92 97 3c
       -0.033795144 -0.00081208476 -0.031972993 0.018502245
000050 87 aa 1d 3d 58 ba 94 38 22 4c c4 bc fd ed 41 3c
       0.038492706 7.091899e-05 -0.023962084 0.011836526
000060 66 c1 78 3c 6c 5c 4e 3c 38 fb ab 3b f1 64 6f 3b
       0.0151828285 0.012595277 0.0052484535 0.0036528672
000070 6d 6d 16 3d 51 e0 b8 bc 1d 5e 4d 3c 29 85 d5 bc
       0.03672545 -0.0225679 0.012534645 -0.026064472
000080 d0 58 21 bd 6a 04 af 3c 45 5c f1 3b 79 01 c6 3b
       -0.03939134 0.02136441 0.0073657357 0.006042656
000090 82 30 be bc 22 2e 10 bc b2 d8 cc bc 36 53 10 3a
       -0.02321649 -0.008800061 -0.025005672 0.00055055635
0000a0 f5 8e e6 bc 4e d4 d0 3c a7 3b 97 bc a3 20 07 3d
       -0.02814434 0.02549186 -0.018461062 0.03299011
0000b0 85 29 b7 3b 69 9a 68 bc e3 51 34 bc 2e 20 0d bd
       0.0055896663 -0.0141969705 -0.011005851 -0.034454517
0000c0 4c 56 bc 3c 66 a4 c4 3c 2d b3 aa bc 83 8e 70 bb
       0.022990368 0.024004173 -0.02083739 -0.0036706037
0000d0 44 08 8c bb 7c 07 10 3c 86 b8 de bb 59 58 1b bd
       -0.0042734463 0.008790847 -0.0067968993 -0.03792605
0000e0 32 f6 11 3d b8 88 46 3d 58 3c 1d 3c a5 31 e1 bc
       0.03563518 0.04847023 0.009596907 -0.027489493
0000f0 63 a8 6f bc ae c7 db 3c 29 79 27 bd f1 f2 22 3d
       -0.014627549 0.026828613 -0.04088703 0.03978247

conv3.weight f4 [64, 64, 3, 3]
000000 37 95 ba bc 43 3d a0 bc d4 e1 8f bd 0d 65 ae 3d
       -0.02277623 -0.019560462 -0.07025495 0.08515368
000010 3f 0f bb 3c 0e 75 67 bd fa c5 43 bd 0b e7 41 3d
       0.022834418 -0.056508116 -0.047796227 0.04733948
000020 19 b8 78 bc 09 1a 13 3d 61 50 78 3c 45 e8 fc bc
       -0.015180611 0.0359135 0.015155883 -0.030872473
000030 2c 7a 57 bd 62 69 19 bd 15 1f 25 3a 02 9e a3 bd
       -0.052606747 -0.037454017 0.0006298882 -0.07989122
000040 c0 9f 31 bd c3 7b af bc 01 13 05 bd 61 38 b1 ba
       -0.04336524 -0.021421319 -0.032488827 -0.001352083
000050 ba 7e e9 bc 79 ad a8 bd c5 7f 4e bd 7e 3b 27 bd
       -0.02850281 -0.08236212 -0.05041482 -0.04082822
000060 a6 34 4b bd bd fa 20 39 7b c9 8a bc 17 58 d3 bc
       -0.049610756 0.00015352196 -0.016941776 -0.02579884
000070 72 13 fb bc 84 03 59 bd 71 5c 47 bd 15 1c 90 bd
       -0.03064892 -0.05298187 -0.048672143 -0.07036606
000080 a4 af fd bd 7e 74 70 bd c4 d6 6c 3c 46 05 9f ba
       -0.123870164 -0.058704846 0.014455501 -0.0012132309
000090 ef 1a d5 3c 02 7d 05 bd 28 9c aa 3c 07 23 fe 3c
       0.02601382 -0.03258992 0.020826414 0.031022562
0000a0 4a 90 28 bc 0c 59 a7 bd 4e 65 c3 bb 61 90 7e bc
       -0.010288307 -0.08171281 -0.005963004 -0.015537352
0000b0 5a 44 dd 3c 4e 68 ba bd fb 0b 3d bd 5d d3 f1 bc
       0.027010132 -0.09101926 -0.046154004 -0.029519731
0000c0 18 72 88 bb 49 e6 46 bd b1 8b a3 bc 11 51 82 bc
       -0.0041639917 -0.04855946 -0.019964071 -0.015907796
0000d0 47 5e b5 bb 57 52 d1 3a 52 e2 a4 bb 4f 81 a4 bc
       -0.0055349204 0.0015969974 -0.0050318623 -0.02008119
0000e0 4c 31 a0 bc f6 58 38 bc a7 56 4d bd c6 61 aa bd
       -0.019554757 -0.011251679 -0.050131466 -0.0831943
0000f0 0c 5a e6 bc f1 b7 b6 3c bb 0c 09 bd 7b 19 52 bd
       -0.02811911 0.022304507 -0.033459406 -0.05129383
000100 6b 5d bb 3c 1f 46 0d bb 99 05 b3 bd 85 9a 28 bc
       0.022871694 -0.0021556688 -0.08741302 -0.010290747
000110 91 86 12 3c ec c1 c3 3d ec 81 c2 bc 43 bf 4b 3b
       0.008943216 0.09558472 -0.023743592 0.0031089343
000120 2d 73 5d bd a9 bb 08 bd 3a 29 2a 3c fb 97 f5 3c
       -0.05406492 -0.03338209 0.010385806 0.029979696
000130 cc 07 b0 bc 07 61 73 3b b2 43 05 3d 76 4a 4c 3c
       -0.021488093 0.003713669 0.032535262 0.012468925
000140 aa a9 75 bc 9b 2b 6c bd 58 95 44 bd 2c 5e 06 bd
       -0.014994064 -0.057658773 -0.047993988 -0.032804653
000150 3b d2 ba bd 63 a9 fb bd fe dc cf 3c 6a 8b 81 3d
       -0.091221295 -0.12288167 0.025373932 0.06325419
000160 66 47 2b 3e 1e 58 01 bd 3c 66 24 3c ba 6d 30 bd
       0.16726455 -0.031578176 0.01003414 -0.043073393
000170 3a 22 fc bb b4 31 2e 3d 68 1e 8e 3c 06 f5 ba bc
       -0.00769451 0.04252787 0.017348483 -0.022821914
000180 35 cd 74 bd 94 e7 0f bc 11 90 90 bc 24 55 6a bb
       -0.059766013 -0.00878324 -0.017646821 -0.0035756314
000190 19 81 3d bd 4f 05 c2 3c 55 4f 81 bd 79 9e 13 bd
       -0.046265695 0.023684172 -0.063139595 -0.036039803
0001a0 a5 ea d0 3d 73 4c 65 bc 1c 67 46 3c ed 36 0e 3c
       0.10201005 -0.013995278 0.012109544 0.0086800875
0001b0 ef 53 8b bd 77 4d 18 be f7 f6 63 bd 6a db 30 3e
       -0.068031184 -0.148733 -0.055655446 0.172712
0001c0 89 25 eb bc ed ac 64 be 51 16 5d bd d6 d9 b2 3d
       -0.028704422 -0.22331591 -0.05397636 0.08732955
0001d0 c8 f5 57 bc 8f 58 37 3b 94 88 bf bc 0a 96 9d bc
       -0.013181157 0.002797637 -0.023380555 -0.019236583
0001e0 bb b4 39 bd c0 27 fa bd e3 0a 2b be 7d 1c 3b bd
       -0.045338374 -0.12214613 -0.16703372 -0.045681465
0001f0 7a aa d5 3d ec 7a 32 bd a7 9a 50 bb 45 cc 6d 3c
       0.104329064 -0.04357426 -0.0031830461 0.014514034
000200 f8 13 68 bb 83 ca e0 bd fc c1 39 3e b3 c5 f5 3d
       -0.0035412293 -0.10976126 0.18140405 0.12000599
000210 7e 61 a8 3d 40 35 24 bd 2c 42 2a be ac 12 88 3c
       0.0822172 -0.040089846 -0.16626805 0.016610466
000220 60 5f 2c bd b1 f4 cd bc d7 35 88 3c e2 7c 44 bd
       -0.042083144 -0.025141092 0.016627235 -0.04797066
000230 8c da 18 3d b2 b1 52 bd ee 58 7f bd ce 16 b2 bc
       0.037317798 -0.051438995 -0.06234067 -0.02173939
000240 e0 2e ce 3b 95 8b 0f 3d 96 71 41 bc 4c 38 4b bd
       0.006292209 0.035045225 -0.011806866 -0.049614236
000250 d1 67 bd 3c 4c d0 d0 bb 46 f1 d0 3c f1 f4 02 3c
       0.023120793 -0.006372487 0.025505673 0.007992969
000260 5a a7 b5 bc 59 ed 8a bc e6 77 1a bc 00 49 63 bd
       -0.022174526 -0.01695888 -0.009428 -0.05548954
000270 26 97 55 bd 84 2c a2 bd f5 e1 dc bd 69 4b f4 38
       -0.0521461 -0.07918647 -0.107852854 0.00011648873
000280 12 e0 7e bc 81 0e 39 3b 7f fc 95 bc 11 1f 6a bd
       -0.015556352 0.0028237405 -0.018308876 -0.057158533
000290 70 bc 5f bd a6 f5 94 bd ce 01 3f bd d7 6a 40 bd
       -0.054623067 -0.07273416 -0.04663258 -0.04697689
0002a0 c4 22 aa bd 93 93 2a bc 73 3b e8 3d d3 fd 4d bd
       -0.08307412 -0.010411161 0.11339464 -0.050290894
0002b0 51 11 40 bc 4f d4 2e 3d cb f9 ce 3c c6 55 e0 bd
       -0.011722879 0.042682942 0.025265595 -0.1095386
0002c0 06 c1 b3 bc c2 d3 64 bd df c2 42 3d 68 6f de 3c
       -0.021942627 -0.05586601 0.047549125 0.027152732
0002d0 5d 8b 5f bc 5a 4a af bc 8e 1a a1 bd e3 b4 e7 bd
       -0.013644067 -0.021397758 -0.07866393 -0.11313798
0002e0 52 ae aa bd ba 8e e4 3a a1 8f 29 bc 60 9f 21 bb
       -0.0833403 0.0017437555 -0.010349185 -0.0024661645
0002f0 f8 bf 32 3d 0d 27 6f bc cf 8d 97 bc 06 19 db 3c
       0.043640107 -0.014596713 -0.018500237 0.02674533
000300 9d 69 da 3c b8 52 de 3c 95 db d2 3b 83 7c 64 bd
       0.026661688 0.027139053 0.0064348676 -0.055782806
000310 55 f5 1a bc 0a ce 5b bd 14 35 e8 3c c0 bf 14 bd
       -0.009457906 -0.05366329 0.028345622 -0.03631568
000320 1a aa 13 3c 6d 53 22 3b 92 2e c9 3c d2 b9 e2 39
       0.009012723 0.0024768964 0.02455834 0.00043244526
000330 da e2 ff 3a 8b 54 0d bd 98 a4 1b 3c 97 91 d5 3c
       0.0019522563 -0.034504455 0.009499691 0.0260704
000340 1a 2d 2a bb c1 86 05 bd af 97 b8 3d 60 88 76 bc
       -0.0025966824 -0.032599214 0.09013306 -0.015047163
000350 97 2b 94 bd a6 c0 51 3c 90 07 34 3c 19 78 61 3b
       -0.072348766 0.012802279 0.010988131 0.003440386
000360 4f 19 8b bd cb 1d 84 bd d1 44 e4 bc a0 9d 11 3d
       -0.067919366 -0.06450995 -0.027864845 0.035550714
000370 cf 11 db bc 74 5f 1b be 2d fb 59 bd 68 ab 0c 3c
       -0.02674189 -0.15173131 -0.053218056 0.008585788
000380 f3 22 1c bc b4 e6 dc 3b a7 73 31 bc 1f bb 02 bd
       -0.009529817 0.006741369 -0.010830796 -0.031916734
000390 a8 ba 1a 3d 9b 58 c6 bc b6 74 d7 3c ef 75 b0 bc
       0.037775666 -0.024212172 0.02630077 -0.02154061
0003a0 38 d6 62 3c 85 d3 48 3c b9 d6 82 bd 1f f0 61 bd
       0.013845019 0.012257461 -0.06388611 -0.055160638
0003b0 62 68 88 bc b4 8c 85 3d 75 6a bb bc b3 ed 4c be
       -0.016651336 0.065209776 -0.022877911 -0.2001255
0003c0 5a df 68 3b ec dd 9e 3d 0f 2f b1 3b 57 00 96 bd
       0.0035533519 0.07757172 0.005407221 -0.073242836
0003d0 63 a9 6c bd bf 4b 60 bd e3 92 1e bc 3b c5 95 bd
       -0.057778727 -0.054759737 -0.009678575 -0.07313009
0003e0 df a8 00 3d ed 45 6f bc 8e ee 93 bd a0 fe a8 3d
       0.031411048 -0.014604074 -0.07223235 0.08251691
0003f0 97 a1 ff 3b 42 a7 ce bc 4f fc fe 3c 15 93 4e bd
       0.0078012454 -0.02522624 0.03112617 -0.050433237

conv3.bias f4 [64]
000000 da 00 17 bb b6 db da bc c9 fc e5 3c b8 e4 9d ba
       -0.002304128 -0.026716094 0.028074639 -0.0012046313
000010 23 d9 a1 3c 03 ea ed bc 9c ea 30 3c 3d 17 0b 3d
       0.01975686 -0.02904225 0.010798123 0.03395771
000020 ff 1f df 3a 0f fb e0 3b 04 6c d2 3c 76 33 00 3c
       0.0017023085 0.006865866 0.025686271 0.007824769
000030 56 d5 02 bd 17 8f 00 bd 77 c5 e7 bc c7 73 c5 bc
       -0.031941734 -0.03138646 -0.0282924 -0.024103059
000040 27 95 dc bc 8e ac 2b 3a 6e 39 f2 bc fb e4 f1 bc
       -0.02692659 0.0006548845 -0.0295684 -0.029528132
000050 51 f4 ec 3c 6f 5e c1 3c 82 8a 00 bd 10 cc 40 bd
       0.028925093 0.0236046 -0.03138209 -0.04706961
000060 da 7f 4e bc 3c a5 cc bc eb 0c d5 3a d7 77 ec 3c
       -0.012603724 -0.024981134 0.001625446 0.028865738
000070 fc bd ef 3c 76 49 2a bd f5 c9 13 3b 72 78 88 bd
       0.029265396 -0.041573964 0.0022550796 -0.06663598
000080 19 3c 04 bd e9 4f a0 bb 9d 3d 0c bb 1a 95 96 3c
       -0.032283876 -0.0048923385 -0.002139903 0.018381644
000090 3b e0 c1 bc 78 11 ef bc ae 29 0c 3d 8b 76 fe 3c
       -0.023666492 -0.029183134 0.034219436 0.031062385
0000a0 c3 b9 bd bc 6c 82 95 bc 10 62 ab bc 4f 91 11 bc
       -0.023159867 -0.018250667 -0.020920783 -0.008884742
0000b0 7d d4 bd bc 07 9f 4f bc 60 5f 13 bd 22 90 d9 3c
       -0.023172611 -0.012672192 -0.03597963 0.026557986
0000c0 a9 0b 10 3d b2 70 20 bd e0 c6 80 bb 6d 22 0d bc
       0.03516737 -0.039169975 -0.0039299577 -0.008614165
0000d0 6c 98 f4 bb 41 d1 6d 3c 7a 19 3f bc dd f5 1f 3d
       -0.007464459 0.014515222 -0.011663789 0.039052833
0000e0 61 89 41 3c 2d 0d de 3c 86 0a e0 bc 77 a2 1b bc
       0.011812539 0.027105892 -0.027348768 -0.009499184
0000f0 ee 3a ce 3c 20 b6 56 3c c0 a9 40 3b 56 88 3d bd
       0.025174584 0.013104945 0.0029398054 -0.0462726

conv4.weight f4 [128, 64, 1, 5]
000000 b8 f3 ad 3c 3f d8 6b 3d 06 73 21 bd 60 44 0c bc
       0.021234378 0.057579275 -0.039416336 -0.008561224
000010 b0 37 7f bd 02 e6 79 3d ca b1 b5 bd 6c 81 ff 3d
       -0.062308967 0.06101037 -0.08871801 0.12475857
000020 d9 25 82 bd 44 65 06 3d 90 0e 1b be c2 7b 80 bd
       -0.06354875 0.03281142 -0.15142274 -0.06273605
000030 ff ee c1 3c 59 bf 1e 3e 37 f9 45 3e a7 41 88 3d
       0.023673533 0.15502681 0.19333349 0.06653147
000040 58 7e c6 bd 60 90 bd 3d e2 83 3f bc a9 2a 6d 3d
       -0.09692067 0.09256053 -0.011689158 0.057902012
000050 f0 71 af 3d 76 37 03 3d ac 78 92 bd 17 36 64 ba
       0.08566654 0.032035314 -0.071519226 -0.000870557
000060 dd 20 05 bd ef 10 13 3e 9c be 44 bd 73 d3 f7 bd
       -0.032502044 0.14361928 -0.04803334 -0.121008776
000070 59 06 4c 3d 47 1a 57 be 91 2d 33 3d 43 6e b6 3d
       0.04981074 -0.21006118 0.043744627 0.089077495
000080 f8 71 be bc 2d 3d 34 3d 24 4b 65 3b 64 3b 0f 3a
       -0.023247704 0.044003654 0.0034987414 0.0005463867
000090 7a 02 39 3d 8b 3c 93 bc 74 fa 52 bd 02 1c 9d 3d
       0.045168377 -0.017973205 -0.051508382 0.07671358
0000a0 cf 47 41 3c 2b 6e 8b 3d 13 18 8f bc 92 0e 17 bc
       0.011796906 0.06808122 -0.017467534 -0.009219782
0000b0 78 14 2e bd 90 5f f5 3c 3e 83 2a 3d f3 15 33 3d
       -0.04249999 0.029952794 0.04162907 0.043722104
0000c0 e4 61 72 bb e8 08 ea bc 4a 05 73 bd 7a 1f aa bb
       -0.0036984617 -0.0285687 -0.059331216 -0.0051917406
0000d0 07 20 aa 3c 6a fe 9f 3c be 35 17 bd 61 4f 9d 3c
       0.020767225 0.019530494 -0.036916487 0.01920289
0000e0 f4 fc 9d 3c ac 73 d1 bc 7b 56 8d bd cf c5 86 bc
       0.019285657 -0.025567852 -0.069012605 -0.016451744
0000f0 e8 fa b2 bd cd 12 3c 3d 3b 3d 4c bd 14 6a 3c 3d
       -0.08739263 0.045916367 -0.04986308 0.0459996
000100 80 6a 86 3d d9 40 c7 3c cb 10 28 bd 1d 46 19 bc
       0.06563282 0.024322914 -0.04103164 -0.009355095
000110 d0 4d 03 3d 5c e2 8b bd a9 dd 30 3d 2b 02 5a 3c
       0.03205663 -0.06830284 0.04318014 0.013306181
000120 37 a1 85 3c 66 df 56 bd b9 9b c1 3c 7c c6 2d 3d
       0.016312225 -0.052459143 0.023633825 0.042425618
000130 70 1d 22 3c 3a 15 eb 3b 90 2b 0f 3d 06 54 5c bd
       0.009894714 0.0071741613 0.034953654 -0.05379107
000140 b9 2a df 3c 80 53 c8 3d 26 88 8e bc 7d fa 85 bd
       0.027242051 0.09781551 -0.017398905 -0.065419175
000150 a9 9b 6d 3b ae ec 30 3d ea c0 f6 3d e8 5c 80 bc
       0.003625611 0.043194465 0.12048514 -0.015669301
000160 49 0e 53 ba 66 ce ae bd 1c d7 01 3c d3 8d 4c bd
       -0.000805114 -0.08535461 0.007924821 -0.04993994
000170 be b9 88 3c 5c 7a ce bb 6f 89 6d 3c e3 08 8e 3d
       0.016690131 -0.0063012075 0.014498099 0.06935289
000180 c2 dc 05 be de e6 33 3d 8f 22 98 bd 21 67 c2 bd
       -0.13072494 0.043921344 -0.074284665 -0.094923265
000190 45 c1 82 3b 30 7b 80 3c 26 7d 14 bd cb f6 1d bd
       0.0039903247 0.01568374 -0.036252163 -0.03856544
0001a0 0e 79 5e bd b7 a5 0d bd cb 48 9d 3d 9a 98 90 bc
       -0.054314665 -0.034581866 0.076799 -0.017650891
0001b0 53 a5 06 3c 99 99 32 3d 94 c3 81 3d 09 08 41 3d
       0.008218127 0.043603513 0.06336132 0.047126804
0001c0 8b a0 05 3c 5e c0 30 bd 3d d9 67 bd a3 e4 b9 bc
       0.008155952 -0.043152206 -0.05660366 -0.02269203
0001d0 71 5b bb bd cb 52 3b 3d ed 05 9b bd 8e 11 51 3a
       -0.091483004 0.045733254 -0.0756949 0.0007975333
0001e0 06 02 67 bd d5 1b ca 3c 8b 97 c4 3c 04 11 9e 3c
       -0.056398414 0.024671474 0.023998043 0.019295223
0001f0 f8 af 23 3d 07 35 43 3d 8b 89 02 be b0 87 1a 3d
       0.03996274 0.047657993 -0.12747781 0.037727058
000200 af 1b 6c bd 6a 34 0d 3c 1c 8f a4 3d b8 75 26 bd
       -0.05764359 0.0086184535 0.080351084 -0.04063961
000210 2e 01 5a bd cd 4a d2 bd d4 64 23 3d 7f bc 43 3d
       -0.05322378 -0.10268173 0.03989108 0.047787186
000220 e2 8b d1 bb bc 9d c0 3c 43 25 4e 3d 04 f5 20 bd
       -0.006394849 0.023512714 0.050328504 -0.039296165
000230 43 98 d8 3d a4 34 c3 3d f4 84 16 bd 42 cd 8b bd
       0.105759166 0.09531525 -0.036747888 -0.06826259
000240 12 75 a3 bd 9f 2b 7a bb 52 49 51 bd 97 ca f4 bc
       -0.07981314 -0.0038172973 -0.051095314 -0.029881759
000250 00 6d cb 3d 93 31 2b 3d 9f 1f a1 bc dc 28 f8 3c
       0.099328995 0.041795325 -0.019668398 0.03029292
000260 ec 59 f4 bd 06 bf 9b bd c9 bc e9 bb 91 d3 e6 3d
       -0.11931214 -0.07604794 -0.0071331006 0.11270822
000270 92 89 3d 3d ee ee 5f 3c 0b 8f 35 bd 6c 1e e7 bd
       0.046273775 0.013667805 -0.04432587 -0.112850994
000280 fa b6 6d 3c 6e 52 d8 3b a2 61 15 bd f0 90 4f bd
       0.014508957 0.0066016233 -0.036470063 -0.050675333
000290 62 9f 5e 3b e4 9b a0 bb 2d 9b 5a bd 4f ea 9c bb
       0.0033969511 -0.004901396 -0.053370643 -0.004788674
0002a0 aa 90 aa 3d 7f 3e 3b 3d 4f 2a c7 bd 05 bd 94 3c
       0.08328374 0.045713898 -0.097248666 0.018156538
0002b0 bf be c6 bd 78 63 48 3d 01 10 84 bc f8 b4 d5 ba
       -0.09704351 0.048922986 -0.016120913 -0.0016304543
0002c0 f2 9a 4a 3c 68 af eb 3c e9 5b 6e bd ec 09 ad 3d
       0.012366043 0.028770164 -0.05819312 0.08449158
0002d0 aa 1f 4d 3d fd 32 9f bd 1c 16 a8 bd 37 c3 00 be
       0.050079025 -0.07773397 -0.08207342 -0.12574469
0002e0 02 bb 79 bd 9f 6f 8c 3c 84 ec e3 bb c9 79 ed bc
       -0.06096936 0.017143069 -0.006955685 -0.028988736
0002f0 11 83 ac bd 20 1e 0b be 52 02 58 bd a4 3b b3 3c
       -0.084234364 -0.1358571 -0.052736588 0.021879025
000300 cd 24 b0 bd 0f 42 a7 bc c9 5e 58 bd 75 d8 c9 3c
       -0.08600769 -0.020417241 -0.05282477 0.024639348
000310 6f 03 84 3d 51 2d 58 bd 3c b2 83 bd d8 0e 4f 3b
       0.064459674 -0.052777592 -0.0643048 0.003159454
000320 f3 49 45 3d b4 aa 31 bc 03 25 17 3d 4a a3 28 bd
       0.048166227 -0.010843921 0.03690053 -0.04117135
000330 fb 9b f7 3b fd 06 bf bd bf a2 c6 bd 3a aa 83 3d
       0.007556436 -0.09327505 -0.0969901 0.064289525
000340 75 8d e8 bb 99 a3 65 3c 41 44 ac bc c3 f7 ae 3c
       -0.007096941 0.0140160555 -0.02102864 0.021358376
000350 da 32 0a 3d 3f b2 e1 bc 7c 87 9a bd a1 1d 91 bc
       0.033739902 -0.027550815 -0.07545373 -0.017714323
000360 47 74 3d 3d 35 32 b7 3d 7e f4 48 3c 00 b3 f6 ba
       0.04625347 0.08945123 0.012265323 -0.0018821657
000370 10 de eb 3c 58 39 3b 3d 6c 97 86 bd 2f 54 c1 bc
       0.028792411 0.045708984 -0.0657185 -0.023599712
000380 6b c4 85 bd 25 8b c0 3d 1d 18 fe bb a2 11 23 3c
       -0.065316044 0.0940154 -0.0077543394 0.009952934
000390 96 94 99 bd 90 c9 6b bd 0c 90 45 3d be 73 0f bd
       -0.07499044 -0.05756527 0.048233077 -0.03502249
0003a0 aa 48 95 3c 21 2d 49 bd cc da 87 3c 64 6b 5e 3d
       0.018223125 -0.049115304 0.016583823 0.054301634
0003b0 03 0b 49 bd 2f ff ab bd 5b 7f aa 3c 2e ad 10 3d
       -0.049082767 -0.08398282 0.020812681 0.035321407
0003c0 11 d5 3a 3d 0d e9 b9 bc b1 e2 04 3c 7c 1b 38 bc
       0.045613352 -0.022694135 0.008110688 -0.011237022
0003d0 c0 0d 4a bc 1c 67 1f bd 8d 10 ad 3d 4c 3f f7 3c
       -0.01233238 -0.038916692 0.084504224 0.03018155
0003e0 f0 31 83 3d 7c 34 95 bd 22 68 87 3b f2 1a 13 bd
       0.06406009 -0.07285401 0.0041322866 -0.03591437
0003f0 87 5a 32 3c 73 07 2f bd 85 fb 6b 3c 2f fe 7d ba
       0.010885841 -0.042731714 0.014403229 -0.00096890604

conv4.bias f4 [128]
000000 2f 66 64 3d 5f dd c3 bb 72 3f 40 bc 94 59 a4 3b
       0.055761512 -0.005977317 -0.011733877 0.0050155614
000010 cc 78 14 3d 73 be 53 3c bb b3 8e 3d 1d ed ab 3c
       0.036248013 0.012923825 0.069678746 0.020987088
000020 a7 8a 45 3c 77 24 96 3c 40 09 f0 bb 14 23 b5 bb
       0.012056983 0.018327935 -0.0073253214 -0.0055278633
000030 05 78 bd bb 59 1b 55 3d 68 95 1f ba eb eb a1 bc
       -0.0057821297 0.052028034 -0.0006087632 -0.019765815
000040 9a 2d b8 bc 88 a9 87 3c bb 72 fb 3b 37 be da 3a
       -0.022482682 0.016560331 0.007673589 0.0016688769
000050 9f 58 99 bc 6b 93 95 3c 5d e3 41 bd 2c a6 51 3b
       -0.018719016 0.01825877 -0.04733597 0.0031989915
000060 c9 1c 03 3c 4e e7 68 3d 0b c6 1e bd c0 8e 81 3c
       0.008002468 0.056861214 -0.038763087 0.015815139
000070 fb 23 91 bc 15 c3 3a 3d c9 58 53 bc cc f6 8b bc
       -0.017717352 0.0455962 -0.012899586 -0.017085455
000080 67 d0 10 3d dc 06 a0 3a 71 a9 0c bd 91 7e 48 bd
       0.035354998 0.0012209076 -0.03434128 -0.048948828
000090 02 bb 40 bc 8a 13 d4 3b 6c 44 34 3a 44 ab 6c bd
       -0.011763336 0.006472056 0.0006876651 -0.05778052
0000a0 69 3a 43 bd ba c5 dc bc df d1 6d 3b 2c 15 25 bd
       -0.047663126 -0.026949752 0.0036288423 -0.040303394
0000b0 dc 87 2b bd 01 25 ea 3b 5d 17 2a 3c 58 6f 85 bb
       -0.041877612 0.0071455245 0.010381547 -0.004072111
0000c0 f7 02 eb bb 72 65 10 3d 58 5c ca 3c ca 67 81 bc
       -0.0071719843 0.035252996 0.024702236 -0.01579656
0000d0 e6 72 2c 3c bd e8 22 bc 98 cf f1 bc 8f b5 37 bd
       0.010525441 -0.009943184 -0.029517934 -0.044850882
0000e0 41 29 45 bb a8 7f 95 3b a2 41 06 3d 8c b8 1a bd
       -0.0030084404 0.004562337 0.032777436 -0.037773654
0000f0 84 19 51 3d 9e 19 24 3d ea 94 1d bd ab 76 48 3c
       0.051049724 0.040063493 -0.038472094 0.012235324
000100 74 ee 8c 3c 6f a2 3d bd 6d 0f 75 bc 74 fe 14 3b
       0.017203547 -0.046297487 -0.014957291 0.0022734674
000110 b8 2a 4b bc e1 a6 37 3d 97 23 92 bc d1 83 02 bd
       -0.012400322 0.044836883 -0.017839236 -0.03186399
000120 84 82 1a 3d 40 35 07 3d af 39 11 3d 88 8b a3 3c
       0.037722126 0.033009768 0.035455402 0.019963995
000130 04 d3 9a 3c 64 fb 01 3d 58 e7 eb 3c 3f a7 cb bc
       0.018899448 0.031733885 0.028796837 -0.024860023
000140 45 b4 3e 3c 55 e9 a6 3c f2 ac 80 bd e6 b3 9a 3c
       0.011639659 0.020374933 -0.06282987 0.01888461
000150 50 eb 93 3c fb 3b fc bc ff aa 18 bc c9 1d df bc
       0.018056542 -0.03079032 -0.009318112 -0.027235882
000160 8b 63 49 3d 71 33 1a 3d f7 a4 16 bc bd 6f 57 bd
       0.049167197 0.037646715 -0.009194604 -0.052596796
000170 16 bd 0b 3d b0 9b 81 3d 0e 56 54 3d c5 5e 99 3d
       0.034115873 0.06328523 0.05183988 0.07488779
000180 7a 3d 55 3d fc 11 ad 3d be 78 34 bd 28 e3 69 bc
       0.05206058 0.08450696 -0.04406046 -0.01427535
000190 b8 ee 83 bc 2d 1d b6 3c 10 b8 8b bc 86 34 1e 3d
       -0.01610504 0.022230709 -0.017055541 0.03862431
0001a0 f2 8d a2 bc 9d d5 4e bd 9f a7 49 bd 00 89 06 bc
       -0.019843075 -0.050496686 -0.04923212 -0.008211374
0001b0 86 f4 55 bd 73 e1 45 3d f1 0b 9f 3c a0 54 e0 3b
       -0.05223515 0.04831071 0.019414874 0.0068460256
0001c0 5d eb 39 3b 38 28 b1 3c a2 b1 f4 3a c0 18 4a 3c
       0.0028369047 0.021625623 0.0018668661 0.012335002
0001d0 d6 90 30 3d f9 61 02 3d ae cb 71 bb be cc 8d 3d
       0.043106876 0.031831715 -0.0036895084 0.06923817
0001e0 79 09 62 3d 26 ac 09 bc 7a 60 5a bd 69 5e 8f 3c
       0.055184815 -0.00840286 -0.053314663 0.017501073
0001f0 a5 7b cb bc f1 4a db 3c 17 80 c9 3c ba 38 03 bd
       -0.024839232 0.026769133 0.02459721 -0.03203652

fc1.weight f4 [128, 128]
000000 ae d0 12 3c 75 2f a0 3d 66 75 f2 bc cd 6a c9 bd
       0.008960886 0.07821552 -0.029596996 -0.09834824
000010 0d 44 5f 3d 35 ed 24 3d df fe 46 3d ac 7c 48 3d
       0.054508258 0.04026528 0.048582908 0.04894702
000020 2d 0f 61 3c 65 e8 ed 3d 7d 5e e9 bd ff 9e de bc
       0.013736528 0.11616591 -0.11394975 -0.027175425
000030 f2 6c b7 3d 7e 3e 8e bd 82 dc ec bd 90 34 be 3b
       0.089563265 -0.06945513 -0.11565496 0.005804606
000040 71 2f a8 bd c4 f7 0b bd 87 e7 9d bc 1c 52 12 3d
       -0.08212174 -0.034171835 -0.01927544 0.035722837
000050 95 19 38 3d 0a 80 38 3d ed cd ae bd 30 c4 83 3d
       0.044946272 0.045043983 -0.08535371 0.06433904
000060 63 f0 60 bd 19 eb 0c be fa ac 3e bd e9 be 13 bd
       -0.05491675 -0.13761558 -0.046551682 -0.036070738
000070 a5 83 76 3d ea 32 41 bd 36 93 2a bd d6 6f 8c 3d
       0.06018414 -0.047167696 -0.041644298 0.068572685
000080 72 7b 1a 3d e8 eb c3 bd 41 62 14 bd 7c 65 af 3d
       0.037715383 -0.0956648 -0.036226515 0.085642785
000090 0b 2e b1 3c 8e 43 3c bd 59 3c 3a bd ee 8e 62 bd
       0.0216284 -0.045962863 -0.04546771 -0.05531209
0000a0 b3 84 a0 bd c7 11 fc 3a da 74 d7 bd 03 24 24 bd
       -0.0783781 0.0019231372 -0.105203345 -0.040073406
0000b0 d2 fb a8 bd f1 5c 6b bd 40 97 97 3d cb 40 79 3b
       -0.08251156 -0.057461683 0.074018955 0.0038033004
0000c0 1f 8d 96 bc 40 24 0d be 77 08 99 3c 71 7e 83 3d
       -0.018377839 -0.1378336 0.018680794 0.06420601
0000d0 39 95 e6 bc 52 a7 ad bd 06 22 c8 3d c7 64 a8 bc
       -0.028147327 -0.084791794 0.097721145 -0.020555867
0000e0 5c 1e 89 3d 33 73 9d bb 19 b0 ba 3d 99 56 54 bd
       0.06695244 -0.0048049926 0.09115619 -0.0518404
0000f0 15 e7 02 3e 3c b5 ab ba 4e 2e 99 bd bd b2 a1 3d
       0.12783463 -0.0013100277 -0.07479535 0.0789542
000100 df c4 4c bd b2 ac 12 bc d8 28 00 3e 31 c1 ee 3c
       -0.04999244 -0.008952307 0.1251558 0.029144855
000110 83 ae 3f 3d 13 5a fe bc 6e 00 46 bd 45 eb 9b bd
       0.046797287 -0.03104881 -0.048340254 -0.076132335
000120 e9 3c 21 3c f3 cc a8 3b a8 6d 64 3d 6b f4 65 bd
       0.009841182 0.005151385 0.05576864 -0.0561413
000130 e5 4f ea bd fd 39 08 bd 63 01 37 bd 34 61 e9 bd
       -0.1144102 -0.033258427 -0.044679057 -0.11395493
000140 9c 74 79 bd b4 db df bc 8b b7 f1 bc c4 46 82 3d
       -0.060902223 -0.027326442 -0.029506465 0.06361154
000150 7e 16 9c bd 2f 79 1c bd d6 7e 37 3d da ba e4 bd
       -0.076214775 -0.038201507 0.044798695 -0.111684516
000160 9f 2c c1 bd bb 3e 7d 3d a6 47 d6 3b b9 3f 13 3d
       -0.09432339 0.061827403 0.006539303 0.035949443
000170 52 05 88 bd c3 91 bb bd 05 bd e8 3c 05 c9 06 3e
       -0.0664164 -0.09158661 0.028410444 0.1316262
000180 a2 ff 25 be 19 2c 63 3d 44 69 35 3d 62 3e 6a bc
       -0.16210797 0.055461977 0.044289842 -0.0142971
000190 1c c5 5e 3d c7 90 ca bb e9 1a 8b 3d b8 e5 53 bd
       0.054387197 -0.0061818096 0.06792242 -0.05173275
0001a0 28 e4 5d bd 21 4f 6f bd 2d 1e 67 bd 2d 5e 5f bc
       -0.054172665 -0.058425073 -0.056425262 -0.013633293
0001b0 46 e3 94 bd 94 b3 9b bd ec a9 2d bc 0e 33 91 3d
       -0.072699115 -0.07602611 -0.010599595 0.07089816
0001c0 e5 ec f8 bc b3 6d 58 bc 8d 49 bf 3d fd 71 9a bc
       -0.030386398 -0.013209748 0.093402006 -0.018853182
0001d0 8b f0 06 3c 29 3d 8c bd a3 5b 7e 3d e4 88 05 3d
       0.008236061 -0.06847603 0.06209911 0.032601252
0001e0 6d 9d 9d bc e1 c0 a2 bc 99 fa 88 3d 61 e2 d9 bc
       -0.019240106 -0.019867362 0.06688423 -0.026597204
0001f0 a2 e1 5c bd c3 eb 84 3d 95 a4 38 bc e6 84 71 bc
       -0.053926118 0.064902805 -0.011269708 -0.014741158
000200 08 f8 9f 3d 4a 5c 91 3d 8d d5 19 3d e6 22 cb ba
       0.0781098 0.07097681 0.037557174 -0.0015498071
000210 95 b8 2b 3d 97 bd 21 bd 85 9a 02 3e 79 5d b0 3d
       0.041924078 -0.039487448 0.12754257 0.086115785
000220 b0 91 4a 3d 28 4c 46 bd 1a 52 e6 bd 79 37 15 bc
       0.049455345 -0.048412472 -0.112461284 -0.009107464
000230 13 26 e0 3c b6 56 b1 bd 4a 99 2a 3a 95 4f 1f bc
       0.027361905 -0.08659117 0.0006507827 -0.009723564
000240 60 8f 98 bd d4 77 0a bd 5a 2e 31 be 6b 68 b1 bd
       -0.074492216 -0.033805683 -0.17302838 -0.08662494
000250 0b 33 c5 3c dc 6b 91 bc 3b b4 21 bd 99 30 84 3d
       0.02407219 -0.017751627 -0.03947852 0.06454582
000260 1a c5 dc 3c a5 e8 71 bb 74 2e 82 bd 89 b9 f5 3c
       0.026949454 -0.0036912349 -0.063565165 0.029995697
000270 4c 32 26 bd a8 a0 fb bd 15 04 ce 3b 9c c0 5e 3d
       -0.04057531 -0.12286502 0.0062871077 0.054382905
000280 89 d6 16 3d 70 80 eb bd c3 a2 c3 3d de af c7 3b
       0.03682569 -0.11499107 0.09552529 0.006093963
000290 e9 45 9b bd 09 bf 42 3e 4e a5 96 bc a3 ee b9 ba
       -0.07581694 0.19018187 -0.01838937 -0.0014185499
0002a0 52 ca e7 bd 34 93 2e bc 4f 8b 6c 3b 27 e7 1c 3d
       -0.113178864 -0.010655213 0.0036093777 0.03830638
0002b0 4e 45 20 3b 1a 58 29 bd ee fa 72 bd 13 1b 64 3b
       0.0024455371 -0.041343786 -0.059321336 0.0034806177
0002c0 f6 63 2b be 02 d5 86 bd 30 b5 b5 3c 33 77 79 bd
       -0.16737351 -0.06583597 0.022181123 -0.060904693
0002d0 c2 4c 3c bd e2 b4 a6 bc 72 f4 a1 bd 04 73 80 3d
       -0.04597164 -0.020349924 -0.07907952 0.062719375
0002e0 aa ed 1f 3e 6d 9a a2 bd 29 c4 24 3d 44 70 7a 3d
       0.15618005 -0.07939611 0.040226135 0.06114222
0002f0 dd 2a 72 bc 50 5a 8b 3d b6 9c 3a 3d ba cf 81 bc
       -0.014780727 0.06804335 0.045559607 -0.015846122
000300 f3 8f e3 bd 88 83 d4 bd 8e 05 d8 bd f9 bb 87 bd
       -0.111114405 -0.1037665 -0.105479345 -0.0662765
000310 31 a8 2a bc 1c 05 e5 3c 27 9b 99 3d d4 28 6f 3c
       -0.0104160765 0.027956538 0.07500296 0.0145971365
000320 93 f2 4f bc 4e e1 14 bd 14 e8 ca bd 2f 1b b1 bd
       -0.012692112 -0.03634768 -0.09907547 -0.08647763
000330 93 46 8a bc 81 18 46 bc 20 20 1c 3d ed 9b 1e bd
       -0.016879356 -0.012090803 0.038116574 -0.03872292
000340 ed 12 c0 3d 4a d4 85 b9 6d fd e5 bd 4a a0 34 be
       0.0937861 -0.00025525904 -0.11229978 -0.1763927
000350 11 90 8d ba 57 83 b0 bd 97 89 0d be 1d dd e2 3d
       -0.0010800381 -0.08618801 -0.13822018 0.1107733
000360 d4 e3 3c bd 5b 33 97 3d 0e 16 90 3d 1b b0 38 bd
       -0.04611571 0.07382842 0.070354566 -0.045089822
000370 15 34 ad 3d 6e ff 38 bc 19 08 58 bd a7 37 18 be
       0.084571995 -0.011291368 -0.052742098 -0.1486498
000380 8a c8 42 3d f2 0d 98 bb 24 e7 9d 3d eb 9b 40 bd
       0.04755453 -0.0046403343 0.07710102 -0.047023695
000390 48 d9 69 3d 8d 5f 25 be f2 98 6c bc 89 ec 62 3d
       0.05709198 -0.16149731 -0.014440762 0.05540136
0003a0 d8 79 73 3c d7 be b8 bd 3b 3a 22 bd eb c4 b1 bd
       0.014860593 -0.09020775 -0.039606314 -0.08680137
0003b0 4c 19 01 be 55 8a bc bc 7b d9 d6 3b 46 d2 28 3c
       -0.12607306 -0.02301518 0.0065566874 0.010304039
0003c0 91 93 18 bd 5a 4f 59 bc c0 56 53 3b 93 11 f7 bc
       -0.037250105 -0.013263548 0.0032247752 -0.030159747
0003d0 6b 79 6c 3d b5 c7 3e 3e 6c bf ba 3d 5e b0 e7 bd
       0.05773298 0.1863087 0.09118542 -0.11312936
0003e0 f0 a6 0a 3e 58 d2 d5 bc fe 80 4c bd c1 52 9c bd
       0.13540244 -0.026101276 -0.049927704 -0.076329716
0003f0 6a 79 44 3d 20 cf df 3d f0 60 8c bd 58 ec 9f 3c
       0.047967352 0.10928178 -0.06854427 0.019521877

fc1.bias f4 [128]
000000 cc d7 20 bd 60 06 90 3d e8 ee fd 3b d8 52 87 bb
       -0.0392683 0.07032466 0.007749427 -0.004129749
000010 02 16 e4 bd 2e f6 c7 bb ca a4 19 bd 7b 1e 7c bc
       -0.1113701 -0.006102345 -0.03751067 -0.0153881265
000020 88 23 d0 bc b9 99 76 bd 41 23 4d 3d 30 e8 18 bd
       -0.025407568 -0.060205195 0.05008245 -0.037330806
000030 fa 7b 28 bd 04 68 db 3c ab 80 a4 bc 92 7a 01 bd
       -0.04113386 0.026782997 -0.020080885 -0.031611033
000040 86 b2 15 bc 79 22 82 3d 75 a1 de bc bb 7c 85 3d
       -0.009136802 0.063542314 -0.027176598 0.06517931
000050 cf 9c 25 3d 70 bb 37 3d d2 9b 10 3d 5a 34 a2 3b
       0.040432747 0.04485649 0.03530485 0.0049500884
000060 30 94 ea 3d 21 0f 58 bd 4b 8f 95 3d 16 eb 35 bd
       0.11454046 -0.052748803 0.073027216 -0.04441365
000070 6b 38 77 3c a6 bf ed 3c f8 17 3c 3d da db 65 3c
       0.015089135 0.02902205 0.045921296 0.0140294675
000080 70 f8 32 bc cb ab 29 3c 65 09 14 bd 80 3b a2 3d
       -0.01092349 0.0103559 -0.03614177 0.07921505
000090 c1 d1 8e bc 9b d1 54 bd 30 97 54 3d b4 f9 ec 3b
       -0.017434003 -0.051957708 0.051901996 0.0072319154
0000a0 db 46 d9 3b b3 c2 9c bd 90 30 4e bd b4 d3 ea bc
       0.006630761 -0.076543234 -0.05033928 -0.028665401
0000b0 7a 10 9e 3d b7 f0 88 bd 12 4c 52 bd 8a bb 8c bd
       0.077179864 -0.06686538 -0.051342078 -0.06871708
0000c0 a0 95 6b 3d 21 4e 39 bd 35 7d 99 bd 26 57 c3 3d
       0.05751574 -0.045240525 -0.074945845 0.095381066
0000d0 dc 20 25 3d 32 b6 0d 3c 7c 13 a4 3d 3d fe dd bc
       0.04031454 0.008649396 0.08011529 -0.02709877
0000e0 e9 ce cb 3c 51 23 82 bc d9 3d cd 3d 1b 7c 41 bd
       0.024878936 -0.01588598 0.10021562 -0.047237497
0000f0 73 b6 80 ba 08 51 ba bd 4c d6 e9 bc a7 1e 86 3d
       -0.0009819999 -0.09097487 -0.028544568 0.06548815
000100 7c e1 c8 bd 8f 4a b6 3d 10 26 2a bd 70 e8 15 3d
       -0.09808633 0.0890094 -0.041540205 0.036598623
000110 87 6a 47 3d 27 cb d5 3d 20 ef 16 3d 35 92 81 3d
       0.048685577 0.10439139 0.03684914 0.06326715
000120 a7 cd 84 3d d6 1e c0 bc 82 e7 4b bd f6 28 a9 3c
       0.064845376 -0.023452204 -0.04978133 0.020649415
000130 94 a3 65 bd 5f a3 bd 3c d0 ac 8c bd 08 67 67 3c
       -0.056064203 0.02314919 -0.06868899 0.014123686
000140 54 e0 1e b9 17 bd 8b 3d 37 ad ec bb 9d 49 98 bd
       -0.00015151623 0.068231754 -0.0072227973 -0.074359156
000150 ec 10 a8 3c 68 27 60 bd d9 67 e1 3d b8 f3 93 3c
       0.020515881 -0.05472508 0.110061355 0.01806055
000160 d4 c0 f5 bc 4c 82 59 3d 21 c1 db 3c ad e1 8e 3c
       -0.029999174 0.053102776 0.02682549 0.017441595
000170 47 1b b0 bd fc 92 91 bd 3e 59 e7 bd 44 b3 73 3d
       -0.08598953 -0.07108113 -0.112963185 0.059497133
000180 96 b1 28 3d 58 a1 e6 3d dc 75 1a bb fe a7 1b bd
       0.041184984 0.11261243 -0.0023568785 -0.038002007
000190 f5 ed 8a 3d 0c 2e bb 3d 72 66 1c bd 2e 6f 90 bc
       0.06783668 0.09139642 -0.038183637 -0.01763114
0001a0 01 b3 25 bc a6 5b 70 3c 1f 01 49 3d 48 b1 90 3d
       -0.010113479 0.014670288 0.049073335 0.07065064
0001b0 99 c9 3f bd ac e9 29 3d 8a fc a7 3d e9 d6 02 3d
       -0.046823118 0.041482612 0.08202465 0.031943236
0001c0 61 1d 2c 3d 45 93 a6 bc 74 90 ba bd 4e b1 9e bd
       0.042020205 -0.020333895 -0.091095835 -0.07748662
0001d0 9b 32 06 3d 42 d9 83 3c 4f 95 6d bc f9 94 38 bd
       0.032763105 0.016094808 -0.01450093 -0.045063946
0001e0 af 31 bd bd 2e 09 a3 3b f1 c9 48 3d 5c fa aa bd
       -0.09237992 0.0049754595 0.04902071 -0.083485335
0001f0 fc 9f 9a 3d 52 30 42 3e 2a f5 26 3d 86 c1 cf bd
       0.07550046 0.18963745 0.04076115 -0.101443335
